…
|    ¢|¢wConv1d: 2-41                                1,925
===========================================================================
Total params: 58,634,373
Trainable params: 58,634,373
Non-trainable params: 0
===========================================================================
====================================================================================================
Layer (type:depth-idx)                             Output Shape              Param #
====================================================================================================
¢u¢wSequential: 1-1                                  [-1, 512]                 --
|    ¢|¢wLinear: 2-1                                 [-1, 512]                 66,048
|    ¢|¢wSiLU: 2-2                                   [-1, 512]                 --
|    ¢|¢wLinear: 2-3                                 [-1, 512]                 262,656
¢u¢wModuleList: 1                                    []                        --
|    ¢|¢wTimestepEmbedSequential: 2-4                [-1, 128, 64]             --
|    |    ¢|¢wConv1d: 3-1                            [-1, 128, 64]             2,048
|    ¢|¢wTimestepEmbedSequential: 2-5                [-1, 128, 64]             --
|    |    ¢|¢wResBlock: 3-2                          [-1, 128, 64]             230,400
|    ¢|¢wTimestepEmbedSequential: 2-6                [-1, 128, 64]             --
|    |    ¢|¢wResBlock: 3-3                          [-1, 128, 64]             230,400
|    ¢|¢wTimestepEmbedSequential: 2-7                [-1, 128, 64]             --
|    |    ¢|¢wResBlock: 3-4                          [-1, 128, 64]             230,400
|    ¢|¢wTimestepEmbedSequential: 2-8                [-1, 128, 32]             --
|    |    ¢|¢wDownsample: 3-5                        [-1, 128, 32]             49,280
|    ¢|¢wTimestepEmbedSequential: 2-9                [-1, 256, 32]             --
|    |    ¢|¢wResBlock: 3-6                          [-1, 256, 32]             591,872
|    ¢|¢wTimestepEmbedSequential: 2-10               [-1, 256, 32]             --
|    |    ¢|¢wResBlock: 3-7                          [-1, 256, 32]             657,408
|    ¢|¢wTimestepEmbedSequential: 2-11               [-1, 256, 32]             --
|    |    ¢|¢wResBlock: 3-8                          [-1, 256, 32]             657,408
|    ¢|¢wTimestepEmbedSequential: 2-12               [-1, 256, 16]             --
|    |    ¢|¢wDownsample: 3-9                        [-1, 256, 16]             196,864
|    ¢|¢wTimestepEmbedSequential: 2-13               [-1, 384, 16]             --
|    |    ¢|¢wResBlock: 3-10                         [-1, 384, 16]             1,232,000
|    |    ¢|¢wAttentionBlock: 3-11                   [-1, 384, 16]             592,128
|    ¢|¢wTimestepEmbedSequential: 2-14               [-1, 384, 16]             --
|    |    ¢|¢wResBlock: 3-12                         [-1, 384, 16]             1,281,024
|    |    ¢|¢wAttentionBlock: 3-13                   [-1, 384, 16]             592,128
|    ¢|¢wTimestepEmbedSequential: 2-15               [-1, 384, 16]             --
|    |    ¢|¢wResBlock: 3-14                         [-1, 384, 16]             1,281,024
|    |    ¢|¢wAttentionBlock: 3-15                   [-1, 384, 16]             592,128
|    ¢|¢wTimestepEmbedSequential: 2-16               [-1, 384, 8]              --
|    |    ¢|¢wDownsample: 3-16                       [-1, 384, 8]              442,752
|    ¢|¢wTimestepEmbedSequential: 2-17               [-1, 512, 8]              --
|    |    ¢|¢wResBlock: 3-17                         [-1, 512, 8]              2,101,504
|    |    ¢|¢wAttentionBlock: 3-18                   [-1, 512, 8]              1,051,648
|    ¢|¢wTimestepEmbedSequential: 2-18               [-1, 512, 8]              --
|    |    ¢|¢wResBlock: 3-19                         [-1, 512, 8]              2,101,248
|    |    ¢|¢wAttentionBlock: 3-20                   [-1, 512, 8]              1,051,648
|    ¢|¢wTimestepEmbedSequential: 2-19               [-1, 512, 8]              --
|    |    ¢|¢wResBlock: 3-21                         [-1, 512, 8]              2,101,248
|    |    ¢|¢wAttentionBlock: 3-22                   [-1, 512, 8]              1,051,648
¢u¢wTimestepEmbedSequential: 1-2                     [-1, 512, 8]              --
|    ¢|¢wResBlock: 2-20                              [-1, 512, 8]              --
|    |    ¢|¢wSequential: 3-23                       [-1, 512, 8]              787,968
|    |    ¢|¢wSequential: 3-24                       [-1, 1024]                525,312
|    |    ¢|¢wIdentity: 3-25                         [-1, 512, 8]              --
|    ¢|¢wAttentionBlock: 2-21                        [-1, 512, 8]              --
|    |    ¢|¢wGroupNorm32: 3-26                      [-1, 512, 8]              1,024
|    |    ¢|¢wConv1d: 3-27                           [-1, 1536, 8]             787,968
|    |    ¢|¢wQKVAttentionLegacy: 3-28               [-1, 512, 8]              --
|    |    ¢|¢wConv1d: 3-29                           [-1, 512, 8]              262,656
|    ¢|¢wResBlock: 2-22                              [-1, 512, 8]              --
|    |    ¢|¢wSequential: 3-30                       [-1, 512, 8]              787,968
|    |    ¢|¢wSequential: 3-31                       [-1, 1024]                525,312
|    |    ¢|¢wIdentity: 3-32                         [-1, 512, 8]              --
¢u¢wModuleList: 1                                    []                        --
|    ¢|¢wTimestepEmbedSequential: 2-23               [-1, 512, 8]              --
|    |    ¢|¢wResBlock: 3-33                         [-1, 512, 8]              3,413,504
|    |    ¢|¢wAttentionBlock: 3-34                   [-1, 512, 8]              1,051,648
|    ¢|¢wTimestepEmbedSequential: 2-24               [-1, 512, 8]              --
|    |    ¢|¢wResBlock: 3-35                         [-1, 512, 8]              3,413,504
|    |    ¢|¢wAttentionBlock: 3-36                   [-1, 512, 8]              1,051,648
|    ¢|¢wTimestepEmbedSequential: 2-25               [-1, 512, 8]              --
|    |    ¢|¢wResBlock: 3-37                         [-1, 512, 8]              3,413,504
|    |    ¢|¢wAttentionBlock: 3-38                   [-1, 512, 8]              1,051,648
|    ¢|¢wTimestepEmbedSequential: 2-26               [-1, 512, 16]             --
|    |    ¢|¢wResBlock: 3-39                         [-1, 512, 8]              3,151,104
|    |    ¢|¢wAttentionBlock: 3-40                   [-1, 512, 8]              1,051,648
|    |    ¢|¢wUpsample: 3-41                         [-1, 512, 16]             786,944
|    ¢|¢wTimestepEmbedSequential: 2-27               [-1, 384, 16]             --
|    |    ¢|¢wResBlock: 3-42                         [-1, 384, 16]             2,216,320
|    |    ¢|¢wAttentionBlock: 3-43                   [-1, 384, 16]             592,128
|    ¢|¢wTimestepEmbedSequential: 2-28               [-1, 384, 16]             --
|    |    ¢|¢wResBlock: 3-44                         [-1, 384, 16]             2,019,456
|    |    ¢|¢wAttentionBlock: 3-45                   [-1, 384, 16]             592,128
|    ¢|¢wTimestepEmbedSequential: 2-29               [-1, 384, 16]             --
|    |    ¢|¢wResBlock: 3-46                         [-1, 384, 16]             2,019,456
|    |    ¢|¢wAttentionBlock: 3-47                   [-1, 384, 16]             592,128
|    ¢|¢wTimestepEmbedSequential: 2-30               [-1, 384, 32]             --
|    |    ¢|¢wResBlock: 3-48                         [-1, 384, 16]             1,822,592
|    |    ¢|¢wAttentionBlock: 3-49                   [-1, 384, 16]             592,128
|    |    ¢|¢wUpsample: 3-50                         [-1, 384, 32]             442,752
|    ¢|¢wTimestepEmbedSequential: 2-31               [-1, 256, 32]             --
|    |    ¢|¢wResBlock: 3-51                         [-1, 256, 32]             1,117,184
|    ¢|¢wTimestepEmbedSequential: 2-32               [-1, 256, 32]             --
|    |    ¢|¢wResBlock: 3-52                         [-1, 256, 32]             985,856
|    ¢|¢wTimestepEmbedSequential: 2-33               [-1, 256, 32]             --
|    |    ¢|¢wResBlock: 3-53                         [-1, 256, 32]             985,856
|    ¢|¢wTimestepEmbedSequential: 2-34               [-1, 256, 64]             --
|    |    ¢|¢wResBlock: 3-54                         [-1, 256, 32]             854,528
|    |    ¢|¢wUpsample: 3-55                         [-1, 256, 64]             196,864
|    ¢|¢wTimestepEmbedSequential: 2-35               [-1, 128, 64]             --
|    |    ¢|¢wResBlock: 3-56                         [-1, 128, 64]             378,496
|    ¢|¢wTimestepEmbedSequential: 2-36               [-1, 128, 64]             --
|    |    ¢|¢wResBlock: 3-57                         [-1, 128, 64]             312,704
|    ¢|¢wTimestepEmbedSequential: 2-37               [-1, 128, 64]             --
|    |    ¢|¢wResBlock: 3-58                         [-1, 128, 64]             312,704
|    ¢|¢wTimestepEmbedSequential: 2-38               [-1, 128, 64]             --
|    |    ¢|¢wResBlock: 3-59                         [-1, 128, 64]             312,704
¢u¢wSequential: 1-3                                  [-1, 5, 64]               --
|    ¢|¢wGroupNorm32: 2-39                           [-1, 128, 64]             256
|    ¢|¢wSiLU: 2-40                                  [-1, 128, 64]             --
|    ¢|¢wConv1d: 2-41                                [-1, 5, 64]               1,925
====================================================================================================
Total params: 57,058,437
Trainable params: 57,058,437
Non-trainable params: 0
Total mult-adds (M): 417.24
====================================================================================================
Input size (MB): 0.00
Forward/backward pass size (MB): 4.61
Params size (MB): 217.66
Estimated Total Size (MB): 222.27
…
